data.pth (torch, 12415 bytes, 6 tensors)

l1.weight f4 [8, 193]
00000000: 86cc e63d 2de9 ba3d 4734 e2bc 6025 163e
00000010: 2839 273c b0b3 063f 1be7 543e a578 2f3e
00000020: 920c f6bd 5b9e a53e ed27 39be 6d28 91be
00000030: 82d0 923f 2cb2 8c3f 1f00 04bd c1d1 373f
00000040: a7dd 863e bc80 88be a76e 4d3e 86a1 acbe
00000050: 34ac ee3e 651f 053e ec64 943e f4c0 563e
00000060: 5f61 263f 4f1e c2bd d4de 143f e40c 02be
00000070: 8ec0 383e e58d 0c3e f57f cd3e e783 cdbd
00000080: 53f0 633e cb81 b63e 73da 993e 2d92 74be
00000090: b825 fb3e 0358 87bd abaa a4be 0adb 1b3e
000000a0: b1e8 263e d75e 433e bbba 5b3e 3771 593e
000000b0: ddf1 4ebc dbdb a1be ffc9 b13e a2ec f5be
000000c0: 346f d93e e43d 153f 3086 fe3e f902 11bf
000000d0: 5dc2 fabd 6617 f9bd c761 033f bd15 2fbf
000000e0: 33cc 1cbf 796d 1ebf e8e9 c13e d32a 14bf
000000f0: 1151 1dbf beba 2abf 951a 28bf 8d36 243f
00000100: 6ced 01bf 2f5e 9abe f30d 843e 513f 2c3f
00000110: 0d4f a33e 429e 9c3e 7228 8ebe acbf 10be
00000120: 6b9f 6b3e 1bc4 e63b 49cb 8bbd 4cb5 8d3e
00000130: bae5 d4bd 77a1 c13e 50b9 bfbe f610 43bf
00000140: 3080 5e3e e94b 953e a5a0 ed3b 9699 753d
00000150: 4fc1 403e 5c84 bc3e 7bb9 f53e d096 d3be
00000160: ef2c 9dbd 4981 78be 9737 75bd c86d 00bd
00000170: 7c0e 283e 11cf 013f 5120 0fbf 7b45 c0be
00000180: 608e acbe 26f1 063f e607 c6bc ed8a 1d3d
00000190: f27c 7d3e 5cc1 7e3e 4f96 403e c32c 413e
000001a0: 5869 a43e 5905 d23e 1c0f 10be 9e07 033f
000001b0: ee07 083f 7fb1 123f eac2 0ebf 4180 09be
000001c0: 0bf9 5c3e 4aea fb3d c682 be3e a696 e8be
000001d0: ebaa debd c50d 89be 84e0 40be 8000 913e
000001e0: 8d03 ff3d 95b5 ad3e 54cd 863e 63bf ac3e
000001f0: 92d5 203d dba5 043f 7303 c9bd ec03 7a3e
00000200: def7 94be 72e5 2cbe e56c f23e 9d71 98be
00000210: 8231 d4bd 6e64 0d3e b117 6dbd 1fad 6cbd
00000220: ba9d 743c 441a 933e ec7f 83bd b4ac dabe
00000230: 4c59 123e 3383 0fbf 417f 343e e9b3 8abf
00000240: 3f1e fd3b 5082 d6bc 8662 52be 0dd2 44be
00000250: 4233 80be 6120 ac3e 4143 e73c 8aa7 703f
00000260: ccdf 3a3e 7a94 873e 00ef 453e fb0d 893e
00000270: 7414 563e 6733 793e b25d 9ebe 6840 bc3e
00000280: 8e0d 053f d3ee 423e 7bc1 8f3d e3c2 ab3d
00000290: 0409 f73d cd81 833f 4bf7 c83e 29d3 693e
000002a0: 672c 943f c6dd 19bf 2130 17bf f246 d6be
000002b0: 061f 19be 63a2 463e edb6 f5be 18a8 083f
000002c0: 6568 333e 4681 113c 9c98 d3bc 7b9d e03e
000002d0: 6293 0cbe 2b0b 5b3e 83a7 423f 5651 0cbe
000002e0: aa89 153e 390e ccbe 107a c73e 0fc3 a7be
000002f0: 859c b43e 5416 223f 372c bc3e e7d5 f0be
00000300: 8e7f 8a3d ed0a 753e 45a9 133e 3b8e 033f
00000310: 895c bf3d 30c9 21bc 2790 2abf d1d4 a2be
00000320: 3c72 9c3e 2380 383f f488 0abe 3ccd d43a
00000330: 189e 243e 3a94 14be 9660 1fbe 78dc e5bd
00000340: 6357 693f 07bc dabc e81c 643e ffb3 72be
00000350: 6e0c cd3e 27fb 9f3e 4005 a7be 412a 6d3e
00000360: 6f8e 99be 4fd9 be3e c2ac 413e 6e2e f13e
00000370: 48de be3e ea61 f7bd 315d c1be 6353 083f
00000380: 7f82 7bbd 5b46 dabe 1def 323f 5b8b 9d3e
00000390: 1158 a13e b375 363f c380 4d3e a0e5 d93d
000003a0: a67b fbbc 8f52 b53e ad00 aa3e 21f4 4e3d
000003b0: bd8f a03e 3190 1b3f e421 db3d e299 9b3e
000003c0: 9c28 87be 8197 02bd 1bdb 523f bd72 0c3f
000003d0: d689 2e3f dc5b 6c3e e42d 143f ed52 f73e
000003e0: 82f1 05bf 498e 00bf 1f2e febe 85b9 b03e
000003f0: 3541 01bf ef5d fcbe c8e1 02bf 671d 02bf
0.112694785 0.09126506 -0.027612818 0.14662695 0.010206498 0.5261793 0.20791285 0.17135866
-0.12014116 0.32347378 -0.18081637 -0.28351155 1.1469882 1.0991874 -0.032226678 0.71804434
0.26340982 -0.26660717 0.20061742 -0.33716983 0.46615756 0.13000257 0.28983247 0.20972043
0.64992326 -0.09478437 0.5815251 -0.1270023 0.18042204 0.13726003 0.40136686 -0.10034924
0.22259645 0.356459 0.30049476 -0.23883887 0.49052215 -0.06608584 -0.3216146 0.15220276
0.16299702 0.19079147 0.21457951 0.21234594 -0.012630907 -0.3161305 0.34724423 -0.480321
0.42467654 0.5829756 0.49711752 -0.5664516 -0.12244103 -0.12162666 0.5132107 -0.68392545
-0.61249083 -0.6188579 0.3787377 -0.57877845 -0.6145182 -0.66691196 -0.6566556 0.6414574
-0.507529 -0.3014998 0.25791892 0.67284113 0.31896248 0.3058949 -0.27765232 -0.14135617
0.23010032 0.0070424206 -0.06825883 0.2767738 -0.10395379 0.378185 -0.3744607 -0.76197755
0.21728587 0.29159477 0.0072518163 0.059960924 0.18823741 0.36819732 0.47993073 -0.41325998
-0.07674586 -0.24268068 -0.059867468 -0.031354696 0.16411775 0.50706583 -0.55908686 -0.3755301
-0.33702374 0.52711713 -0.024173688 0.038462568 0.24754694 0.24878448 0.18807338 0.18864731
0.3211162 0.41019705 -0.14068264 0.511835 0.531371 0.5730209 -0.55766165 -0.13427831
0.21579377 0.123005465 0.37209147 -0.45427436 -0.10872444 -0.26768318 -0.18835646 0.28320694
0.12451849 0.339276 0.26328528 0.33739766 0.039266177 0.51815575 -0.09815111 0.24415559
-0.29095358 -0.16884401 0.47348705 -0.2977418 -0.10361005 0.13807842 -0.057883922 -0.05778229
0.014930183 0.28730977 -0.064208835 -0.42709887 0.14291877 -0.5605957 0.17626669 -1.0836154
0.007724553 -0.026185185 -0.20545396 -0.19220753 -0.25039107 0.33618453 0.028230311 0.94005644
0.18249434 0.26480466 0.19329453 0.2676848 0.2090624 0.24336015 -0.3093086 0.36767888
0.5197381 0.19036417 0.07019325 0.08386781 0.120622665 1.0273987 0.3925117 0.22834457
1.157605 -0.60104024 -0.59057814 -0.41851002 -0.14953241 0.19397883 -0.47991124 0.5338149
0.17520292 0.008880919 -0.025829606 0.43870148 -0.13728097 0.21390979 0.7603685 -0.13702902
0.14603296 -0.398546 0.38960314 -0.32766005 0.35275665 0.6331532 0.36752483 -0.47038195
0.067626104 0.23929949 0.1442004 0.513889 0.093438216 -0.009874627 -0.6662621 -0.3180299
0.30555904 0.7207052 -0.13528806 0.0016235481 0.16075933 -0.14509669 -0.15564188 -0.11223692
0.91148967 -0.026700987 0.22276652 -0.23701476 0.40048546 0.31246302 -0.32621193 0.2316065
-0.2999148 0.37275168 0.18913558 0.47105736 0.37278962 -0.120792225 -0.37766412 0.5325224
-0.061403748 -0.42631802 0.6989611 0.30770382 0.31512502 0.71273345 0.2006865 0.106395006
-0.030698609 0.3541455 0.3320364 0.05052579 0.31359664 0.60766894 0.106998235 0.3039084
-0.2639817 -0.031882767 0.8236558 0.54862577 0.6817907 0.23081917 0.57882524 0.48305455
-0.52321637 -0.5021711 -0.49644563 0.3451654 -0.50490123 -0.49290416 -0.51125765 -0.50826114

l1.bias f4 [8]
00000000: 75e2 613f 0b2b 123f 0ddc 6f3f 8def 833f
00000010: 6c9a 533f 561b af3f c999 833f 387c 983f
0.8823617 0.5709693 0.93695146 1.030748 0.82657504 1.3680217 1.0281307 1.1912909

l2.weight f4 [8, 8]
00000000: 0060 6bbf ef19 a23f ca9f ab3f 2e82 863f
00000010: 1933 843f 589c 7d3f d701 eb3e 4ff0 b5bf
00000020: dbc1 d43f f9cd cd3f 150a 0a3d 3f54 58bf
00000030: bb72 0240 6aa2 0d40 a1d3 153f 29b9 61be
00000040: 7ce1 fb3f 6746 e73f dc81 a23f 4a11 0abd
00000050: 2231 56bf 47a5 2b3f d30e e3bf 473f a73f
00000060: d144 62bf 1948 11bf 0b4d 0440 7b23 3d3d
00000070: f920 a8bf 3da8 b13f e573 04bb 9164 a23f
00000080: 01dc 19be 2b82 66bf dcda ddbc 6d2e 0d40
00000090: 3134 503f 56cc 0040 1787 0cbf e264 403e
000000a0: e789 b0bf 0f9e 893f 02bf cb3f bbef 833f
000000b0: e73e a03e c47c 86bf 9803 853f fc92 923f
000000c0: 3434 91bf 6a87 693f 7162 923f 6863 f4be
000000d0: e692 df3f ff54 f83c fdc3 b2bf edb1 c53f
000000e0: 8e21 9c3f e2ed 20bf 5e26 033f a526 e43f
000000f0: 54bd 67bf f28a 9dbe 3fd3 0240 ea2c 0a40
-0.9194336 1.2664164 1.3408139 1.0508478 1.0328094 0.99066687 0.4589984 -1.4213961
1.662166 1.6078483 0.03370102 -0.8450355 2.0382526 2.213038 0.58526045 -0.22043289
1.9678187 1.806836 1.269588 -0.033707894 -0.8366872 0.6704907 -1.7738899 1.3066186
-0.88386256 -0.5675064 2.0672023 0.046176415 -1.3135062 1.3879467 -0.002021068 1.268694
-0.15025331 -0.9004237 -0.0270819 2.2059586 0.8132964 2.0124717 -0.5489363 0.18788484
-1.3792084 1.0751361 1.5917666 1.0307535 0.3129799 -1.0506825 1.0391722 1.1451106
-1.1344056 0.9122225 1.1436292 -0.4773209 1.7466705 0.030313967 -1.3966061 1.5444924
1.219774 -0.6286298 0.5123042 1.7824293 -0.90523267 -0.3077007 2.0441434 2.1589913

l2.bias f4 [8]
00000000: cf45 52bf 2068 853f e94a acbe 9bf2 263f
00000010: fde7 483f 0c16 c8bd d34b 243f 24f7 d23e
-0.8213777 1.0422401 -0.33650902 0.65213937 0.78478986 -0.0976983 0.641782 0.41204178

l3.weight f4 [24, 8]
00000000: e3cf c4be 3a87 61bf bb19 ff3e e653 af3e
00000010: 5053 d93e 214d 88bf 9414 1abf 81af 1e3e
00000020: 80d7 33c0 63ad 733e a3f0 0b3f 4a85 773e
00000030: 9350 0a3f 4306 35c0 73ee 0cc0 0b22 523e
00000040: be5f cebe 9b69 0e3e 5c58 d23e 6a0f a83d
00000050: 5a7a 94bf 7da7 60bf 2f58 e93e e6ba 0cbf
00000060: f050 42bf 1c31 d13e f4fa 093f 81c0 9dbf
00000070: fcd5 f7bf b738 e7be c3e0 4fbf 57a9 ba3b
00000080: 3107 073f 6166 793e 9cbb 12be 2978 b1be
00000090: 0f57 46be 442e 42bf bf32 9cbf 3897 d7be
000000a0: a459 be3e 228f 913e 88ff 9ebf 716a cabf
000000b0: 2040 c9bf 513b ed3e f48e 40bf 1217 673d
000000c0: 2d7c 1d3f a134 653e 972e efbe df50 51bf
000000d0: 2f95 dcbf 7a63 b13e 8490 683e c26f c8bf
000000e0: 6403 e03e 947b 4f3e 12c8 02bf c24e 6b3f
000000f0: d262 b53e 9c6a b0bf 0527 c5bd 7421 30c0
00000100: 4c34 01bf f90a 9abe 71de 46bd 3908 d7bf
00000110: 35e4 8e3d 5163 01bd 9a71 b9be 95c0 f93e
00000120: 8cd5 053f 86f0 cb3e 319c 013f 2c99 cdbf
00000130: b716 83bf 6fc5 bcbf ba42 de3c 4cf2 b3bf
00000140: 3cb7 d23e d878 34bf 11c4 54be ee12 ecbd
00000150: 9f5a 4b3e 21d5 86be 6eca 8d3e 37ae f2be
00000160: 8079 5bbf 8281 693c 326b be3e 7e1a 3c3f
00000170: 4ee0 093e ee78 65c0 4920 0a3f b8af 01bf
00000180: 050c d9bf 805b 06c0 c55d 6abf 84d1 ab3e
00000190: abdf 323f 8d47 953e 20f1 1ebf 887b 293f
000001a0: 90eb d4bf 5423 6fbf e378 83bd 0ff6 e43e
000001b0: 1537 3dbe df92 023e cad2 363f a9a2 1abd
000001c0: 50b2 e63e b908 bdbe 035b cfbf a62d eb3e
000001d0: dbe4 5e3f 6353 e9be daf6 d8bf 0e46 e5bc
000001e0: 2510 c0bf 1547 433f 367c 463f c630 00c0
000001f0: 9eb9 e83e 7f7c 24c0 b744 4bbf 2575 98bf
00000200: ba25 24c0 4c74 f03e b040 babe 61c2 09c0
00000210: f53e cabc 7b10 28be e5bb 903f 5af1 26bf
00000220: 4316 c8bf 2394 063f 121d b9bd debf 97bf
00000230: f22e 0cc0 431a 3dc0 3585 75bf d538 8c3f
00000240: 75fb 0ebf 7b6a 403f c30d f2bf 3d48 cdbf
00000250: 2000 1d3f a87a 37c0 b116 e3bf 1e64 f13e
00000260: 720f dabf 39f5 afbe 1e57 e03d 108b df3e
00000270: fd8e 45bf b39c a1bd 3d44 0cc0 812b 2f3f
00000280: 02fb 9f3e daaa 103f 3a4c 05c0 7e26 83bf
00000290: c3a3 3f3f db0d efbf aa41 073f d2a7 adbf
000002a0: 4bf6 703e 35ce a9bf 1e23 94bf 618d 743e
000002b0: d0a6 f8be 8978 1c3f f312 02bf 9480 ac3e
000002c0: c1ff 39c0 9acb 783e bc99 1ac0 70d7 613f
000002d0: e6d4 843e 9423 cfbe dffd 95bd 4c9c 9b3e
000002e0: e2af 6f3e bf99 9abd fe84 a2be 6a23 193f
000002f0: 32ba 1bc0 3a71 173e 2423 ffbe 19c0 36be
-0.38439855 -0.88096964 0.49824318 0.34243697 0.42446375 -1.0648538 -0.6018765 0.15496637
-2.810028 0.2379661 0.5466406 0.2417194 0.54029197 -2.8285072 -2.2020538 0.20520799
-0.4030742 0.13907473 0.41083038 0.08206065 -1.1599839 -0.87755567 0.4557509 -0.54972684
-0.7590475 0.4085778 0.5389855 -1.2324373 -1.9362178 -0.45160457 -0.81202334 0.0056964564
0.5274535 0.2435546 -0.1432938 -0.34661987 -0.19369148 -0.75851846 -1.2202986 -0.42107558
0.37177765 0.28429514 -1.2421732 -1.5813733 -1.5722694 0.46334317 -0.7521813 0.056418486
0.615176 0.22383358 -0.46715233 -0.81764024 -1.7233027 0.34646207 0.22711378 -1.5659106
0.43752587 0.20261985 -0.51086533 0.9191705 0.35426956 -1.3782535 -0.09626583 -2.7520418
-0.50470424 -0.30086496 -0.04855198 -1.6799384 0.06977121 -0.031588856 -0.36219484 0.4877974
0.5227897 0.39831942 0.50628954 -1.6062369 -1.0241307 -1.4747752 0.027131427 -1.4058318
0.41155422 -0.7049689 -0.20777918 -0.11527048 0.19858788 -0.2633448 0.27693504 -0.4739854
-0.8573227 0.0142520685 0.3719116 0.73477924 0.13464472 -3.585506 0.53955513 -0.5065875
-1.6956793 -2.0993347 -0.9154933 0.33558285 0.6987254 0.2915615 -0.6208668 0.6620412
-1.6634388 -0.9341328 -0.06419542 0.44718978 -0.18478043 0.1275134 0.7141539 -0.03775278
0.45057917 -0.36920717 -1.619965 0.45933264 0.87067956 -0.45571432 -1.6950333 -0.027987506
-1.5004927 0.7628034 0.7753328 -2.002977 0.45454115 -2.5700986 -0.79401726 -1.191075
-2.5648026 0.46963727 -0.36377478 -2.152489 -0.024688223 -0.16412537 1.1307341 -0.65212023
-1.5631794 0.5256979 -0.09038748 -1.1855428 -2.1903653 -2.954728 -0.9590638 1.0954844
-0.5585244 0.75162476 -1.891045 -1.603767 0.61328316 -2.8668613 -1.77413 0.47146696
-1.7035964 -0.34366778 0.10954116 0.43660784 -0.7717131 -0.07891216 -2.191665 0.68425757
0.3124619 0.565107 -2.0827775 -1.0246122 0.74859256 -1.8676103 0.5283457 -1.356684
0.23531453 -1.3266054 -1.1573217 0.23882057 -0.48564768 0.6112142 -0.50810164 0.33691847
-2.906235 0.24296418 -2.4156332 0.88219357 0.2594368 -0.4045683 -0.07323813 0.30392683
0.23406938 -0.07548856 -0.3174209 0.5981966 -2.4332395 0.14789286 -0.49831498 -0.17846717

l3.bias f4 [24]
00000000: c35b 37bf 32e5 14bd 4cd8 f1be df2b 8cbe
00000010: a33e 0dbf 458c 213e 629f 88be e73f 6bbe
00000020: 9b2c acbe 8a21 89be 5893 e9be 9b22 0d3e
00000030: d869 a83e d907 9c3d 8b03 e93c 294e 773e
00000040: 646d cb3e 9513 28bc dbb2 373f 8156 903b
00000050: a0e8 313f e603 d3be ae53 9b3e 33d9 2dbe
-0.7162439 -0.03635139 -0.47235334 -0.2737722 -0.551737 0.15776165 -0.266841 -0.22973596
-0.3362778 -0.267834 -0.45620227 0.13782732 0.32893252 0.07618684 0.028444072 0.2415091
0.39731896 -0.010258575 0.71757287 0.0044048433 0.6949558 -0.41213912 0.3033728 -0.16977386
