data.pth (torch, 17407 bytes, 6 tensors)

l1.weight f4 [8, 287]
00000000: 62bb 593e e17e 823e 65d6 c13d ff10 0a3e
00000010: f58d 183e 04ba ba3e 6ef1 4f3e 34e3 933e
00000020: b56f 483d a0fa 5e3e 746d 9c3e b1c3 3c3e
00000030: ca25 803e 3c41 db3c 0c23 203e c765 1a3e
00000040: 2a8e 95be 3c06 a1be ad3b dc3e beda 223f
00000050: 1171 5c3f 3785 95be d43a ad3d e834 09bc
00000060: 3899 5b3f 3c8e 6f3f 24e2 153f ac39 583f
00000070: 4c17 ffba 74b0 b03e 19ff 49be 59eb 8cbd
00000080: 9acf 403e 04ac 013e 9893 333e 2a79 60be
00000090: e7cd fe3e c61d 0e3e 119d 3ebe d359 7f3d
000000a0: 4455 553c 43da 85be 7992 9b3e ed7b 943e
000000b0: 8365 523f 15fe cabe 0916 1f3f 9359 f43e
000000c0: 1bac 483e dab4 61bb 5cea 73bd afec 8e3e
000000d0: b6ee b63e 8e4a 913e 8e3f a33e 562b 383e
000000e0: f4f5 5d3e ab73 3f3e d8b1 7e3e 2c41 9abe
000000f0: e048 a0be 0e41 d33e 7749 4a3d dddc 6d3d
00000100: 2507 253e f73d 793d 6162 ec3e a434 f23d
00000110: a9d6 bc3e 1d5a 8abf 9103 223f 327c 6abf
00000120: cc87 03bf aacd 8cbe 0b69 443f 7dcf a03d
00000130: 3730 df3e c550 553e b5dc 0d3e c82f 043f
00000140: 93fc fa3e 451c 573e 49b9 f13e fd17 ef3e
00000150: 5274 d83e 3452 e43e 5e94 2a3f 0367 313f
00000160: 4871 443f a81c 433d 2f7c 4a3e 76af ef3d
00000170: 217e 29bc 377a 553e fc71 dcbe d3fc 0e3e
00000180: 9d33 423f fa1a e13d 0acb 1f3e 1f12 c8be
00000190: 5bb2 07bd 1bf0 4f3e b13a 703d af0a 4d3f
000001a0: 9a0d 84bd e4c1 853f 1c4d cc3e 2229 b8be
000001b0: 84f4 0e3f 9dd3 5a3e acf1 693e 8f4e 083f
000001c0: 582f 0c3e 5b7f ee3e c008 ba3e 30de 2d3e
000001d0: 7d47 093e 3dd9 35bd ef82 013e 3832 97be
000001e0: 8343 0b3f 0532 d13e 3fee 2d3e 5f72 263e
000001f0: 7b8a e23e d739 2d3f 050b 113f cfe2 0e3e
00000200: 7fc5 8abe 9d4d 003e 59bd 713e 0f8f fc3e
00000210: 717d 213e 8b09 29bc 8d8c 853e d0d3 a43e
00000220: 573f b23e 3114 e43e 1e6b 8cbe 5383 e83e
00000230: f07e 013f 1bda bdbe 13e9 d9be cd09 e4bd
00000240: 67bb 973e 0861 6dbe bf07 8a3d 42ed d33c
00000250: 938d 243e 5700 3b3e 1727 543c 83a0 d33d
00000260: a220 d93d 59b5 613c 5ec7 c7be 1035 373e
00000270: cc59 ad3e c422 9bbe 30c0 003f e4fc 0f3e
00000280: d07c ad3d 5252 b93e ceb5 363e 4761 463f
00000290: 2453 403e 7826 ee3d eba4 603e 638a 17bd
000002a0: 1845 13bd 0671 913d 5f8d 8f3e 57a6 20be
000002b0: a3ae 39bd 1636 803c ee0e 8cbe 3a8b 7c3e
000002c0: 2d5a f13d 56a5 023e b69d 003e e26f c03e
000002d0: 04ef 5f3e 4630 0b3f 7b31 753e 65ef 923e
000002e0: 661c 9cbc 91ec 573e 12c3 b9bc 2b68 eabd
000002f0: f748 613e b151 61be 6c15 033f a715 263f
00000300: 66fc 1d3e 9779 35bd 188a 383e fb3b 003e
00000310: 428d 95bc bb36 0fbf 252c debd a60e 003f
00000320: 9e41 a03e 34eb c33d ab8b 883e 9868 e73d
00000330: c570 0c3e 136c 95be cbb2 633e 4e7b 073f
00000340: 3071 413e 9ce0 443f 5367 083e 6866 223e
00000350: 2361 aa3e cc0b a23d 9347 2b3e 86a1 123e
00000360: 2d8d 043f c566 413d 14c2 3dbf 520d 193d
00000370: e49d 683e c1ec 4f3e 793f e3bd 903a ea3d
00000380: 93eb d73e bf93 d23e 8ac2 c83e bac1 673e
00000390: 2835 06be ddb0 c93e 0e65 bf3d f601 a83e
000003a0: 01d4 023e beaf c1bd bfe2 eb3e ae1a ad3e
000003b0: 28d8 343e 26d9 703e d8b8 403e 7652 003e
000003c0: 330f 7bbf f64f 88be 9f39 c73e 63d3 693e
000003d0: 4536 12bf 44cf 703f f89c 853e ba89 ab3e
000003e0: 486f a8be 78a1 d33e 966a df3e 7bd3 083f
000003f0: adbd 5c3f 7efd da3d da3b a23d aa2d 443e
0.21262887 0.25487426 0.09464721 0.13483046 0.14897902 0.36470044 0.20306942 0.2888428
0.048934657 0.21775293 0.30552256 0.18434025 0.2502883 0.026764505 0.1563837 0.15077887
-0.29210025 -0.3145007 0.4301428 0.63615024 0.86110026 -0.29203197 0.08458486 -0.00837443
0.8578067 0.9357641 0.5854819 0.84463 -0.0019461899 0.34509623 -0.19726218 -0.068808265
0.18829194 0.12663275 0.17536771 -0.2192122 0.49766466 0.13878545 -0.18614604 0.062341522
0.013020817 -0.26143083 0.30385187 0.29000798 0.82186145 -0.39646974 0.62143 0.4772459
0.19596903 -0.0034440071 -0.059549674 0.2791495 0.35728997 0.28377193 0.31884426 0.17985281
0.21675855 0.18696468 0.2487253 -0.30127847 -0.313056 0.4126057 0.049386468 0.05807196
0.16116007 0.06085011 0.46168807 0.11826447 0.36882523 -1.080875 0.6328669 -0.91595757
-0.51379085 -0.2750066 0.7672278 0.07852075 0.43591473 0.20831592 0.13853724 0.5163541
0.49020824 0.21006878 0.47211674 0.4669799 0.42276245 0.44593966 0.6663264 0.6929781
0.76735353 0.04763475 0.19773935 0.117033884 -0.010345013 0.20847403 -0.43055713 0.13963632
0.75860006 0.109914735 0.15604797 -0.39076325 -0.033129077 0.20306437 0.058649722 0.80094427
-0.06447907 1.0449796 0.3990258 -0.35968882 0.5584185 0.21369787 0.22846097 0.5324487
0.13689935 0.4658154 0.363348 0.16979289 0.13406177 -0.044396628 0.12647603 -0.295305
0.5439989 0.40858474 0.16985415 0.16254567 0.44246277 0.6766638 0.5665744 0.13953708
-0.27103803 0.12529607 0.23607387 0.49327895 0.15770508 -0.010317217 0.26083794 0.3219285
0.3481395 0.44546655 -0.27425474 0.45412692 0.50584316 -0.37080464 -0.42560634 -0.11134682
0.29635164 -0.23181546 0.06739759 0.02586997 0.16069631 0.18261848 0.012948773 0.103333496
0.10601927 0.013776147 -0.39019293 0.17891335 0.33857572 -0.30299962 0.50293255 0.14061314
0.08471072 0.36195618 0.1784279 0.77492183 0.18781716 0.11628431 0.21937911 -0.03699721
-0.035954565 0.07101636 0.28037545 -0.15688454 -0.045332562 0.01565079 -0.2735514 0.24662486
0.11784778 0.12758383 0.12560162 0.3758536 0.21868521 0.54370534 0.23944657 0.2869827
-0.01905651 0.21086337 -0.022676025 -0.1144565 0.2200049 -0.22003819 0.5120456 0.6487679
0.15428314 -0.04430541 0.18021429 0.1252288 -0.018255834 -0.5594289 -0.10848264 0.5002235
0.31300062 0.09566346 0.26669058 0.112992465 0.13714893 -0.29184017 0.22236173 0.52922523
0.18890834 0.76905227 0.13320665 0.15859377 0.33277234 0.07912406 0.16726522 0.14319429
0.5177792 0.04721715 -0.74124265 0.03736622 0.2271648 0.20305158 -0.11096091 0.11436951
0.42171916 0.41128346 0.39210922 0.22632495 -0.13106215 0.39392748 0.093454465 0.32813996
0.12776186 -0.09457348 0.4607143 0.33809417 0.17660582 0.23520336 0.18820512 0.12531456
-0.9807007 -0.26623505 0.3891115 0.22834544 -0.5711406 0.9406626 0.2609632 0.33503515
-0.328974 0.41334128 0.43636006 0.53447694 0.8622692 0.10692881 0.07921572 0.19158044

l1.bias f4 [8]
00000000: d388 f33f 879c aa3f b74a c33f 227c b03f
00000010: f32e 753f 7d98 853f eed8 bc3f 23ab d43f
1.902613 1.3329018 1.5257176 1.3787882 0.95774764 1.0437161 1.4753702 1.6614727

l2.weight f4 [8, 8]
00000000: e08f bb3f 7e52 483e 3809 e4bf dd32 47bf
00000010: 5973 e13f 1426 7e3e 3fff de3e 6290 c33e
00000020: 0a5c 0c3f e810 ffbf 00d0 3040 a584 d53f
00000030: b8bf 1f40 5d46 f13e 90b3 a53f 220c a43f
00000040: 1d71 1040 6bab 2140 3bf6 c9be d6ac 003f
00000050: 727a 213f 53a7 35bf d1e1 d13e 97ac adbf
00000060: 0b68 8c3f 4c8b 86be ab35 1dbf 95d3 0040
00000070: 923f 3ebf 6db5 afbf 8f66 bd3f e7c5 4a40
00000080: 392d de3f 61ef c03f 5fbf ff3f 649a 9ebf
00000090: 6d80 9dbf 72b8 1640 e2d2 8f3f 0957 59bf
000000a0: f0dd 183e e2da fdbe ac37 95bf 7b4b d03e
000000b0: 9590 1240 f1ff b33f 3ddf 1540 e803 1fbe
000000c0: 1853 d53e b7e0 c13e 7e7c 4cbf 3b8a ea3d
000000d0: d311 82bf d16f 2b40 dcb7 2f3f d05b 253f
000000e0: 2150 ebbe 6ecc 0c40 e1f6 333e 2ef2 2a40
000000f0: 9495 923f b402 ca3f 4b68 adbf 668a a63f
1.4653282 0.19562718 -1.7815313 -0.77811986 1.7613326 0.24819213 0.43554112 0.38196093
0.5482794 -1.9927034 2.7626953 1.6681105 2.4960766 0.47123995 1.2945423 1.2816203
2.256904 2.5260875 -0.3944567 0.50263727 0.6307746 -0.7095844 0.40992597 -1.3568295
1.0969251 -0.2627815 -0.61410016 2.012914 -0.7431575 -1.3727242 1.4796923 3.168329
1.7357551 1.5073053 1.9980277 -1.2390866 -1.2304817 2.3550076 1.1236231 -0.8489843
0.14928412 -0.49581057 -1.1657615 0.40682587 2.2900746 1.4062482 2.3417504 -0.15528834
0.41664958 0.37866756 -0.7987746 0.114521466 -1.016169 2.6786997 0.6863992 0.6459322
-0.4595957 2.1999774 0.17574646 2.6710315 1.1451898 1.5782075 -1.3547453 1.3010986

l2.bias f4 [8]
00000000: 352c cfbd 3ed0 873f d208 353f cf28 d93f
00000010: 9764 4b3f 3bd4 d8bd 2b23 08bf dc72 6fbe
-0.10115854 1.0610425 0.70716584 1.6965579 0.7945036 -0.10587355 -0.5317866 -0.23383659

l3.weight f4 [30, 8]
00000000: fd33 da3c 52c4 d6bf fc83 f0bd 44e1 7bbf
00000010: 042b fa3d 51d5 8b3e 3ddd 4a3f 713c 6abf
00000020: 6392 a9be 9228 c53e 7c13 7fbf 0e20 59bf
00000030: c796 e0bf 0e9b 0bbf 84b1 6fbf db6a 743f
00000040: 927e 143f ceef 6ebf b1be ce3e f93f 8f3e
00000050: 2d1c 41bf 8a28 a0bd e430 4ebf fd52 84be
00000060: 5da5 9abf c943 883d 40ba a6bc d1c2 66bf
00000070: d840 b9bd ee11 1ac0 3d95 f5be 25eb 0f3f
00000080: 5bbd 883d e42f c33d ab7a b03e 7932 e7bf
00000090: abfa 2abf bbf8 a4be 07b5 dcbf 66fc be3e
000000a0: 5e67 913e d31e 89bf 4a41 fe3e 47a0 d5bf
000000b0: 5b28 853e eee0 1abf 089b 97be ec8f bcbe
000000c0: f450 27bf f462 dbbf fff8 643f 2fe3 6fbe
000000d0: e973 3fbd e288 44bf bd5e cbbf 29d8 b03e
000000e0: 0ba4 82bf 8129 fb3d 0be9 10c0 ff08 1ebd
000000f0: 0a94 ecbf 6524 be3e cc3b a43e dbf1 e03d
00000100: 518c 64be 8107 443f fae2 07c0 489d 0ac0
00000110: 9cde 00bf 729b 443b 3563 c2bf 6bbd 323e
00000120: ee6a b73d 971c f3bf 95ee 5f3f d166 433e
00000130: 3d6d 3d3e a48a 3a3e a397 b2bf 31c4 d7bf
00000140: 3c4e 27be 9442 19be 9f09 2c3f 30e0 103f
00000150: b40b e0be f1b4 3dc0 6572 fabf 8721 44be
00000160: a2ef b3bf 90d7 2f3e 6cba f83e 73df b73e
00000170: 03b2 903e dbef 97bf 01b3 46c0 11bc ebbf
00000180: 1ecc 233f 42f9 f7bd 1728 a9bf 8ab7 eebe
00000190: c7de 9bbf 4486 903e 8e9b df3e d1e2 7ebe
000001a0: 95c6 263f 70bb 56bf 75f5 5fbd b5d0 aabf
000001b0: 8e2f fabe 84ff af3e 8c40 13be 679c 20be
000001c0: bbd9 9ebe 0ab8 e3be d5f1 dabe 6736 41bf
000001d0: b4b4 9abe e13b 6dbe 1936 abbc 8e3d 8a3e
000001e0: a5de 553f e4cd 913d 8bcf bcbe 68d4 e93e
000001f0: 5575 1fc0 580b c53e b260 f6bd 8168 acbf
00000200: c0c5 d6bf 78ba 04bf 5cec debe b80f e93e
00000210: 8a0f 7dbf 35af 8ebf 8038 363e a40a f53e
00000220: 729e 11bf 7a02 083f 96ad f73e 676b 14c0
00000230: aec6 163e 819a 0bbf cb95 32c0 3584 2bbf
00000240: e857 b1bf fe00 e43e cf50 ddbf 9e97 d03e
00000250: 1a21 013e 8fa7 25c0 3dd7 dfbe 9c25 e7be
00000260: 95e5 da3e f1a8 b2bd e76b b43e 2069 c5be
00000270: 3fe2 27bf 9335 c33e 16a1 abbf 4eb5 c5bf
00000280: 93ef 563d ea4e e23e f8d3 3e3f 1121 153e
00000290: 2cce f9bf 64f5 40be a52b 51c0 612e a7be
000002a0: 2028 95bf 4ccd 253e 8acf 05c0 87fb 1d3f
000002b0: 50cd 6ec0 77b5 72bf 2dfe 9abc f2d6 113f
000002c0: 4584 92bf 9b45 0c3f 16e2 d3bf e203 673f
000002d0: ad1d ccbf 63a3 25c0 12bd 87c0 6c0d bd3e
000002e0: b001 e2bf 14f5 2a3f 2305 2ac0 7af6 163e
000002f0: 05e9 32bf b7ae 103d 784e 53c0 a5ea 45be
00000300: 7ab0 3dbf 83c1 0f3f 01e8 63bf 88f8 433f
00000310: c20e 89bf 125b 893e 287b e0be 7362 3fc0
00000320: b892 3bc0 96c5 913e a909 babe 6350 03bf
00000330: 6636 373b d93b e13d 98db 3ebf 8815 dcbe
00000340: 0311 cfbf 9bbd 05bf 41d0 3a3f 1b7a 12c0
00000350: 1cfa 263f 17b4 09c0 83ce 77bf fdd1 1e3b
00000360: 93b0 c1bc 2639 e8be 5cb8 51be a0c4 a13e
00000370: 8dde 4ec0 6e80 393e 57de 8abe 38e7 c83e
00000380: a02f abbe 356d 17bf 86ef 05be d07b f23d
00000390: 22c9 b13e 6e87 8fbd 4e5f c7bd d932 c6bf
000003a0: d71a 12bf bb12 7dbd a433 a5bf 6c60 1fc0
000003b0: 9b78 3d3e 23ff a6be db31 ed3d aa55 9c3e
0.026636118 -1.6778662 -0.11743924 -0.98390603 0.12215236 0.27311185 0.7924383 -0.91498476
-0.33119497 0.38507515 -0.99639106 -0.84814537 -1.7546014 -0.5453347 -0.9363024 0.9547555
0.5800563 -0.9333466 0.4037986 0.27978495 -0.7543362 -0.07820232 -0.8054335 -0.25844565
-1.2081715 0.06653554 -0.020352483 -0.90141016 -0.09045571 -2.4073443 -0.47965422 0.5621818
0.06676742 0.09530619 0.34468588 -1.8062278 -0.6678874 -0.32221016 -1.7242745 0.3730194
0.28399175 -1.0712532 0.49659187 -1.6689538 0.2600735 -0.60499465 -0.29610467 -0.36828554
-0.653579 -1.7139573 0.8944244 -0.23426507 -0.0467414 -0.76771367 -1.5888287 0.34539917
-1.0206312 0.122637756 -2.2642238 -0.038582798 -1.8482678 0.37137142 0.3207687 0.1098363
-0.22319151 0.7657395 -2.1232285 -2.1658497 -0.50339675 0.002999988 -1.5186526 0.1745507
0.08955942 -1.89931 0.8747342 0.1908219 0.18498702 0.1821695 -1.3952526 -1.6856748
-0.16338438 -0.14966804 0.6720218 0.5659208 -0.4375893 -2.9641688 -1.956616 -0.19153415
-1.4057505 0.17172074 0.4857973 0.35912666 0.28260812 -1.1870073 -3.1046755 -1.8416768
0.63983333 -0.12108089 -1.321536 -0.46624404 -1.2177361 0.28227437 0.43673366 -0.24891211
0.6514676 -0.83879757 -0.054677445 -1.3344942 -0.48864406 0.3437463 -0.14380091 -0.15684663
-0.3102549 -0.44476348 -0.42762628 -0.75473636 -0.3021599 -0.23167373 -0.02089982 0.27000087
0.83542854 0.07119349 -0.36877093 0.45669866 -2.4915364 0.38485217 -0.12030162 -1.3469392
-1.6779099 -0.5184703 -0.43539703 0.45519805 -0.98851836 -1.1147219 0.1779499 0.4785968
-0.56882393 0.5312878 0.48374623 -2.3190553 0.14724228 -0.5453263 -2.7903926 -0.66998607
-1.3854952 0.44532007 -1.7290286 0.40740675 0.12610283 -2.588352 -0.437189 -0.4514588
0.42753282 -0.08723629 0.35238573 -0.38556767 -0.655796 0.3812681 -1.3408535 -1.5445955
0.05247457 0.44200832 0.7454219 0.14563395 -1.9516044 -0.18843609 -3.2682889 -0.32652572
-1.165287 0.16191596 -2.0907922 0.61711925 -3.7312813 -0.94808143 -0.018920029 0.56968606
-1.1446615 0.5479371 -1.6553371 0.902403 -1.5946556 -2.5880973 -4.24183 0.36924303
-1.7656765 0.6678021 -2.6565635 0.14742461 -0.6988681 0.03532287 -3.3016644 -0.19327791
-0.74097407 0.5615465 -0.89025885 0.76551104 -1.0707629 0.26827294 -0.4384396 -2.9903839
-2.93083 0.2847106 -0.36335495 -0.51294535 0.0027956008 0.10997743 -0.74553823 -0.42985177
-1.6177067 -0.5224244 0.7297402 -2.2887027 0.65225387 -2.1516168 -0.96799487 0.002423405
-0.023643767 -0.453561 -0.20480484 0.31595325 -3.2323334 0.18115398 -0.27122757 0.39238906
-0.33434772 -0.5915101 -0.13079652 0.118400216 0.34723765 -0.07008253 -0.09734975 -1.5484267
-0.57072204 -0.06178544 -1.2906384 -2.4902601 0.18503039 -0.3261653 0.11581775 0.30534106

l3.bias f4 [30]
00000000: b980 f1bd 8634 83be 0922 ac3e 0ae1 583d
00000010: 8b87 51be 7e81 ffbe f3de 57bd f238 b4be
00000020: 5041 a33e 8251 823e 993e ce3d 2034 1cbc
00000030: 2d23 29bf 3201 04bf 8a82 51bf c553 29be
00000040: 87fa 653e 1cbf 823e c0c0 0e3f ef7c 02be
00000050: f4eb 463e d424 c03e b63d 643f ba62 053e
00000060: 9417 26bd a4ef 603e 456d 533e ac67 563d
00000070: d88b f13c 1c34 9ebe
-0.1179213 -0.2562601 0.33619717 0.05294899 -0.20461862 -0.49903482 -0.052702855 -0.35199696
0.31885767 0.2545281 0.10070533 -0.009533912 -0.660693 -0.51564324 -0.8183981 -0.16535862
0.2245885 0.2553643 0.55762863 -0.12742971 0.19425946 0.37528098 0.89156663 0.13025942
-0.04054983 0.21966416 0.20647152 0.052344963 0.029485628 -0.3089913
