data.pth (torch, 9471 bytes, 6 tensors)

l1.weight f4 [8, 136]
00000000: e029 8f3d 9a47 533e 3fed 76be f659 4e3d
00000010: 56e1 193e ab6c 05be 77cc ac3c e4e3 953e
00000020: 0214 c73d 614e 45bf ad66 47bf 17ad 8bbc
00000030: b12d 0e3f bcc5 793e ba5a 97be e7df 8b3e
00000040: 2f60 813e 0ba9 fc3e 95e8 3b3e 2712 2f3f
00000050: 6066 143d 02c4 ea3e 1200 1b3d 1009 4c3e
00000060: 127f 8d3e d939 af3e 974c 4c3e 08da 1b3e
00000070: 67a0 a23e 9c62 aebe 7bcd 0e3f dace 293f
00000080: 2352 f93e f11b 27bf e04a 38be b76d b2bd
00000090: c4c4 bb3e cc1f 543f e668 5a3f c759 683f
000000a0: 300c d13c 7a1c 4f3f 1a47 5b3f f09e 4a3f
000000b0: bcaa 5e3f edfc 3f3f 8d77 183f d92a 3dbf
000000c0: ab39 083f a6e8 5e3e d38e cfbe 5fcb aabd
000000d0: cd81 293e 0a48 a1bc 860f c53d 4d4a 903e
000000e0: c77d d83e 80d5 95be e5af 17bf afce fdbe
000000f0: dd57 96be 5bfd a63d 882b 5b3e abb9 8e3e
00000100: e3e5 093f 3b30 a23e 5289 383e f7e4 b73e
00000110: 6bae 7c3e 85a2 d73e 8246 0c3f 458c 203f
00000120: e87b 073e 24cd 973e c44c fc3d 98be eb3d
00000130: 88be 623e e678 0d3e 4584 803f af8d 733f
00000140: 8a8b 2ebf 5d1d b33e f66a 543e dd95 873e
00000150: bd06 c2be a390 a73e 8a02 e13e 0aad d53d
00000160: 1883 703e 6442 4c3e 109f 3bbc 597e 053f
00000170: 55da f93e 56df 033f e273 223e c12a 933e
00000180: db3a 983e 7f72 503e d658 7a3e cc55 08be
00000190: bbb6 613e a561 e2be 518f 2ebf 7382 74bf
000001a0: b920 013e fca9 ec3e 83d0 f53d 1459 a73d
000001b0: d201 393d 6553 6f3e 9320 203f 9369 f53d
000001c0: fa2e 053e 04ef ae3e 305e 5f3d c39c 043f
000001d0: 36df bd3e 028d f03e 9b0c 8a3e 492d 95bd
000001e0: c7d1 27bf ab94 fcbd a3f3 9cbd 38bc 033f
000001f0: 1075 953d 3519 293e e74c fb3d 733d 293f
00000200: cbc6 c23d 3f9b 253f 7442 8b3e 9c38 b53e
00000210: 1dc9 e33e 8500 2b3e a819 efbe 76d4 d83e
00000220: 18d2 70bd 1013 fdbc ef03 2abe d2c9 323d
00000230: 5954 173e e506 3a3e 14f1 8c3f d6a7 ad3e
00000240: 1a5f eebd 07c6 473f 6113 623f 9c62 d33e
00000250: a79d 263f f0c5 bbbd 98d7 e93d 3c11 2dbd
00000260: a78a 8c3e 8324 7a3f ea6a 06be ef26 d83e
00000270: 6625 223c b42a a03d 30bb 163f 293d a53c
00000280: 12e6 9fbd 3f17 ee3e 7f30 8abd 4fd7 1c3e
00000290: 3133 433e daa9 d8be 4634 c43e 45d1 2b3f
000002a0: cf2d 1c3e 17da a0be ae53 86be e905 e53e
000002b0: 8b21 993d 4876 e23e fe84 e93e d813 113f
000002c0: 609c ec3c 8539 f03e 0af0 f63e 6f0c f43e
000002d0: 333c 113f 9e4c 513f d2eb 08bf c75a f2be
000002e0: 2045 13be 8827 0bbd 6999 dcbe cf95 8fbd
000002f0: 94ba a9bd 9fd1 1bbe 0376 88bb 9fd8 7c3e
00000300: ddf4 31bd feee 3f3d 37f8 7c3e 4c74 cdbe
00000310: c11c 523f ac2d 973d 10fc 163d fc4b b2bc
00000320: db9c 423f 3fba 40be 00ed 30bd fd87 ae3e
00000330: 55e5 563e 69cc ca3e 6619 b8be 766a e9be
00000340: bce1 eabc 7bf5 f6bd ec59 8b3d cf64 f13d
00000350: 2b4c 63be ff7b 573d c7b1 f33e c5fa 033f
00000360: 9a05 d93e 3ecd 9f3e 6514 f5bd a2c3 f13d
00000370: 9d1e 9ebe a9f6 823d 478c b53e deb4 eebd
00000380: 63ca 9cbc 56ee aabd 232b 3dbd 7f5f f23c
00000390: e6a8 cd3e 881e 093f a3b0 583e 380f 58bc
000003a0: 97e8 543e e155 833e bc82 1b3e 00df d0be
000003b0: c29d a73e 36c1 0dbe 5564 c83e f0be 08bf
000003c0: ab5e 1fbd ae20 37be b2e5 cfbd 28bd 24be
000003d0: f5b2 51bd c977 973e 423d 973e 6598 2dbd
000003e0: e2dd 943e 6f0f 0cbe c3c2 a1bd 22b8 253f
000003f0: c2de a43e 2bd2 e93e ecef ffbb c2d1 73bf
0.06990409 0.20632783 -0.2411394 0.050378762 0.15027365 -0.13029735 0.02109359 0.2927543
0.09720613 -0.7707272 -0.77891046 -0.01705031 0.5553847 0.24391836 -0.29561406 0.2731926
0.25268695 0.4934772 0.18350442 0.68387073 0.036230445 0.45852667 0.037841864 0.19925332
0.2763601 0.34223822 0.19951092 0.15219891 0.31763002 -0.34059608 0.5578229 0.66331255
0.48695478 -0.6527701 -0.17997313 -0.08712333 0.36673558 0.8286102 0.8531631 0.9076199
0.025518507 0.80902827 0.8565537 0.7914877 0.8697927 0.7499531 0.5955742 -0.73893505
0.53212994 0.21768436 -0.40538654 -0.08339571 0.16553421 -0.019687671 0.096221015 0.28181687
0.4228346 -0.2926445 -0.5925277 -0.4957175 -0.2936391 0.081537925 0.21403325 0.27876028
0.53866404 0.31677422 0.18021134 0.35916874 0.2467591 0.4211618 0.54795086 0.62714034
0.1323086 0.29648697 0.123193294 0.11510962 0.22142994 0.1381565 1.0040365 0.95138067
-0.6818167 0.3498334 0.20743927 0.26481524 -0.37895766 0.32727537 0.4394725 0.10433395
0.23487508 0.19947201 -0.011451498 0.52145916 0.48799387 0.5151266 0.15864518 0.28743556
0.29732403 0.20356177 0.2444795 -0.13313979 0.22042362 -0.44215122 -0.68187433 -0.9551155
0.12610139 0.46223438 0.12002661 0.08171287 0.04516775 0.23371656 0.62549704 0.11983027
0.13006201 0.3416673 0.054533184 0.518017 0.3708436 0.4698258 0.26962742 -0.07284028
-0.6555447 -0.12333044 -0.076636575 0.51459074 0.072977185 0.16513522 0.12270527 0.6610939
0.09510573 0.6469001 0.27199137 0.35394752 0.44489375 0.16699417 -0.46699262 0.42349595
-0.05879411 -0.030892879 -0.16603063 0.043649502 0.1477827 0.18166693 1.1011071 0.3391711
-0.11639233 0.7803654 0.8831082 0.4128617 0.6508431 -0.09168613 0.11418074 -0.042252764
0.27449533 0.9771196 -0.13126722 0.42217204 0.009896612 0.07820645 0.58879375 0.020170765
-0.07807554 0.4650211 -0.06747531 0.15316509 0.19062497 -0.42317086 0.3832113 0.67116195
0.1525185 -0.3141639 -0.26235718 0.44731072 0.07477101 0.44230866 0.45609277 0.56670904
0.02888316 0.46918884 0.4823001 0.47665736 0.5673248 0.81757534 -0.53484833 -0.47334883
-0.14381838 -0.033973247 -0.43085793 -0.070109956 -0.0828754 -0.15216683 -0.0041644587 0.2469201
-0.04344641 0.04685878 0.24704061 -0.4012779 0.82075125 0.07381758 0.03686148 -0.021764748
0.7602059 -0.18821047 -0.04319477 0.34088126 0.2098592 0.39609078 -0.35956877 -0.45589036
-0.028672092 -0.120585404 0.068042606 0.11786806 -0.22197025 0.052608486 0.4759657 0.5155452
0.42387086 0.31211275 -0.119667806 0.11804892 -0.3088273 0.06394703 0.35458586 -0.116555914
-0.019139474 -0.0834624 -0.046183717 0.029586552 0.40167922 0.5356221 0.21161132 -0.013187222
0.20791851 0.25651458 0.1518659 -0.40795135 0.32737547 -0.13843235 0.39139047 -0.5341635
-0.03890864 -0.1788356 -0.10151233 -0.16087782 -0.051196057 0.29583576 0.29538924 -0.042381663
0.29075533 -0.13677762 -0.07898476 0.6473409 0.322012 0.45668158 -0.0078105833 -0.9524194

l1.bias f4 [8]
00000000: 0352 743f 7eb4 963f ed8a 413f 38bc ce3e
00000010: 5537 643f b3e4 453f 6e2f ba3f c949 473f
0.9543764 1.1773832 0.7560261 0.40377975 0.8914693 0.7730209 1.4545724 0.7784696

l2.weight f4 [8, 8]
00000000: 1c89 863f f72d 173f 9993 ce3f 6ade 503e
00000010: d2c8 b4be b1bf 0840 740b 8b3f b3fb abbf
00000020: 71a0 323f b04c df3f 63d8 dd3e a3b7 16be
00000030: 62f9 cb3f 527b e4bf a9c6 4d3f 8e6c 98bf
00000040: 374d ac3f 3af8 883e 7e6e 0b3f b819 af3f
00000050: de88 d6bd 5013 9b3e 92d6 25bf a2b0 95be
00000060: 64af 873f 6cb0 aa3f ada4 0d3f 0fa9 ea3f
00000070: 386c 693f 646a e5be c249 cdbf 79c2 213f
00000080: 742d f73d c70e a6be 9088 abbe d25e f4bd
00000090: e052 c23c 54af 87be 1072 bebd f5cc 18be
000000a0: e116 873f a32a f63f 11c5 983e 3a7c b1bf
000000b0: 937c 69bf 1cd7 6e3f e84c f13f 123d b53f
000000c0: 7724 083f 523e 98bf 47fe 623f be3a d63f
000000d0: e6b9 dc3f 9da0 523f 7266 173e 8268 a4be
000000e0: a3c6 fabf f418 96bc 68d8 363f 1bb6 4abb
000000f0: 23f9 dc3f 2a9d 313f f574 813f e1d8 df3f
1.0510592 0.5905451 1.6138793 0.20397344 -0.35309464 2.1367 1.086287 -1.3436188
0.69776064 1.7445278 0.43329152 -0.1471849 1.593548 -1.7850134 0.80381256 -1.1908128
1.3461064 0.26751882 0.5446547 1.3679724 -0.10475324 0.30288172 -0.64780533 -0.29236323
1.06004 1.333509 0.553294 1.8332843 0.91180754 -0.44807732 -1.6038134 0.63187367
0.12069216 -0.3243315 -0.33502626 -0.11932148 0.023721159 -0.26500952 -0.092990994 -0.14921935
1.0553857 1.9231762 0.2983785 -1.3866036 -0.9120571 0.9329698 1.8851595 1.4159262
0.5318064 -1.1894019 0.88669246 1.6736677 1.7244232 0.82276326 0.14785174 -0.32110983
-1.9591869 -0.018322445 0.7142396 -0.0030931297 1.726353 0.6938044 1.0113817 1.7488061

l2.bias f4 [8]
00000000: 5bd2 8fbe 2725 873f 6e3e 923e 4685 d4be
00000010: 84fe 76be 24d0 7b3f f671 923e 1e58 093f
-0.28090176 1.0558213 0.28563255 -0.4150793 -0.24120528 0.9836447 0.2860257 0.5365008

l3.weight f4 [20, 8]
00000000: 803a bd3e 9b54 cdbd 8db7 92bf 0e7f f7bf
00000010: dcfd d83d 85e9 fc3e 7d06 1dc0 83e3 ed3d
00000020: 68a3 24bf a758 eabf c1c8 933e b8b1 a43e
00000030: d03d 6bbd 0055 033f da8a 25bf 73b9 64be
00000040: 3888 dd3e 17fe bbbf 1c8b 263f dc55 b93d
00000050: ca6b 353e c1d9 89bf 814d 223c f6cd 5cbf
00000060: 83f7 143f 2741 48be 0177 0c3e 53c5 913d
00000070: 68f0 ab3d 9e71 ba3c 6bed 6fbf 50af c0bf
00000080: fe51 85bf 18d8 01c0 5b71 70bb d7ca a73e
00000090: 1029 dd3c fc0c a7bf 0c45 563e 5215 2b3f
000000a0: f25b f8bf fff3 3c3e ed9d a2bf 512b b4bd
000000b0: 31b2 883e 2c42 23bf d04e d83d d60f b23e
000000c0: 22c0 22bf 8238 063f 6a23 583a 8a6b 0d3f
000000d0: ffb0 0bbe 4963 483e 3379 16c0 f769 82bf
000000e0: 32ff 053f 7d0d 9fbf b0f2 573e d58e d4bf
000000f0: 90f9 453d c158 c93e 1067 1b3e a847 a0bf
00000100: 904a 19bf 1c67 233f 4532 0e3f 0f2b 983e
00000110: 4b05 74be 2087 423d 0e08 d3be 48b3 33c0
00000120: ad4e b8bf e409 b6be 8464 babf 3691 af3e
00000130: 5089 af3d d082 ef3d c5bd 1bc0 5b52 b73e
00000140: 850a 01c0 b757 803f 668d 3fbf e8ed 52c0
00000150: eb13 b2be 6ae7 3d3e f1c6 aebe 3205 eb3e
00000160: 160a c13e ac83 693f 8497 89be 4b26 85bf
00000170: bb27 0dbe 943c 233f d866 cebf 26e7 04c0
00000180: 9d4b 1c38 1a52 023f fa32 5c3e 29b4 233f
00000190: 9c14 913d b76f 0fc0 7129 e1bd 1e86 95bf
000001a0: adae 87bf 1386 993e 40f3 87be b2ed 253e
000001b0: 1ed6 3abe 4de3 30c0 5c1e b33e 0749 9e3e
000001c0: 9806 6bbd 4445 7abf a15a 8a3e 7ac4 403e
000001d0: 423e 203e 1933 17c0 8009 013f e9e0 f8bb
000001e0: 70c0 a03e a5a5 da3e c43f 24be 9fee 27bf
000001f0: 5aad 4b3e 807c a4bf e874 eb3d b86f 26be
00000200: 792d 1f3e a335 37c0 4d7c 013e db4e cebe
00000210: fe74 2fbe 56ee eabe 590a d13e f2c8 893e
00000220: 6751 debf aad8 ffbf 6bd3 08bf 4ebe cbbf
00000230: 686d efbd 0aea 413f 2037 94bf 8b0a 503f
00000240: 87fb 943e fe84 a13e a23f 2ebf 91c1 0ec0
00000250: 308d 1dbd b377 3fbe b304 e1bc 9082 fbbd
00000260: 8476 943e 6eba babf bbc1 7fbf 22ed d3bf
00000270: ba88 7b3e eaa4 0cbf 1838 813e 76e8 353f
0.36958694 -0.10025903 -1.1462265 -1.9335649 0.10595295 0.4939691 -2.453521 0.1161566
-0.6431184 -1.8308305 0.288641 0.3216684 -0.057431996 0.51301575 -0.64664996 -0.22336368
0.4326799 -1.4686917 0.65056014 0.090495795 0.177169 -1.0769578 0.009906174 -0.8625177
0.5819017 -0.19556104 0.13717271 0.07117715 0.08395463 0.022759255 -0.93721646 -1.5053501
-1.0415647 -2.0288143 -0.003668866 0.32771942 0.02699712 -1.3050838 0.20924777 0.6682941
-1.940306 0.18452452 -1.2704445 -0.087973244 0.2669845 -0.63772845 0.10561907 0.34777707
-0.6357442 0.52429974 0.0008245023 0.55242217 -0.13641737 0.19569124 -2.3511474 -1.0188588
0.5234252 -1.2425991 0.21088672 -1.6606089 0.048333704 0.39325526 0.15176034 -1.2521868
-0.598794 0.6382921 0.55545455 0.2972035 -0.23830144 0.047492146 -0.41217083 -2.8078175
-1.439901 -0.3555442 -1.4561925 0.34290475 0.08571112 0.116948724 -2.4334576 0.3580502
-2.016267 1.0026768 -0.7482513 -3.2957706 -0.3478082 0.18545309 -0.34136155 0.459024
0.37703007 0.9121654 -0.2687341 -1.0402311 -0.13784687 0.6376431 -1.6125135 -2.0766082
3.726372e-05 0.5090653 0.21503821 0.6394678 0.07084009 -2.2411935 -0.109942324 -1.1681554
-1.0600182 0.29985103 -0.26552773 0.16203955 -0.18245742 -2.7638733 0.349841 0.3091509
-0.057379335 -0.9776194 0.2702227 0.1882495 0.1564875 -2.3624938 0.5040512 -0.0075951708
0.31396818 0.42704502 -0.1603995 -0.6559848 0.19890347 -1.2850494 0.114969075 -0.16253555
0.1554469 -2.8626487 0.12645073 -0.40294537 -0.17134473 -0.4588496 0.40828207 0.26911122
-1.7368592 -1.9987996 -0.534476 -1.5917451 -0.116907895 0.7574774 -1.1579323 0.8126609
0.2909815 0.31546777 -0.68065846 -2.2305644 -0.038464725 -0.18698005 -0.027468061 -0.12280762
0.2899667 -1.4588144 -0.99904984 -1.6556742 0.24563876 -0.5493914 0.2523811 0.7105783

l3.bias f4 [20]
00000000: 9599 763b 57c4 733e 394b f7be cb58 53bf
00000010: 5e0a 16bd 6ed1 1b3e 8858 46be c096 6bbd
00000020: ed4d ed3e 6a2e 573e 7c39 cb3e 54e5 793e
00000030: d45b b2be e6d1 90bc 9439 1dbe 8251 0ebf
00000040: 893a 633e 365c 553d e53d 12bc 050a 24bf
0.0037628163 0.23805366 -0.48299578 -0.8255736 -0.03663098 0.1521661 -0.1936971 -0.057516813
0.46348515 0.210138 0.39692295 0.24403888 -0.34835684 -0.017678212 -0.15353996 -0.5559312
0.22190298 0.052089892 -0.00892589 -0.6407779
